…
convnet.py:102: UserWarning: The `merge` function is deprecated and will be removed after 08/2017. Use instead layers from `keras.layers.merge`, e.g. `add`, `concatenate`, etc.
  ) for i in range(2)], mode='concat', concat_axis=1, name='conv_5')
convnet.py:120: UserWarning: Update your `Model` call to the Keras 2 API: `Model(outputs=Softmax.0, inputs=/input_1)`
  model = Model(input=inputs, output=prediction)
____________________________________________________________________________________________________
Layer (type)                     Output Shape          Param #     Connected to                     
====================================================================================================
input_1 (InputLayer)             (None, 3, 224, 224)   0                                            
____________________________________________________________________________________________________
conv_1 (Conv2D)                  (None, 96, 54, 54)    34944       input_1[0][0]                    
____________________________________________________________________________________________________
max_pooling2d_1 (MaxPooling2D)   (None, 96, 26, 26)    0           conv_1[0][0]                     
____________________________________________________________________________________________________
convpool_1 (Lambda)              (None, 96, 26, 26)    0           max_pooling2d_1[0][0]            
____________________________________________________________________________________________________
zero_padding2d_1 (ZeroPadding2D) (None, 96, 30, 30)    0           convpool_1[0][0]                 
____________________________________________________________________________________________________
lambda_1 (Lambda)                (None, 48, 30, 30)    0           zero_padding2d_1[0][0]           
____________________________________________________________________________________________________
lambda_2 (Lambda)                (None, 48, 30, 30)    0           zero_padding2d_1[0][0]           
____________________________________________________________________________________________________
conv_2_1 (Conv2D)                (None, 128, 26, 26)   153728      lambda_1[0][0]                   
____________________________________________________________________________________________________
conv_2_2 (Conv2D)                (None, 128, 26, 26)   153728      lambda_2[0][0]                   
____________________________________________________________________________________________________
conv_2 (Merge)                   (None, 256, 26, 26)   0           conv_2_1[0][0]                   
                                                                   conv_2_2[0][0]                   
____________________________________________________________________________________________________
max_pooling2d_2 (MaxPooling2D)   (None, 256, 12, 12)   0           conv_2[0][0]                     
____________________________________________________________________________________________________
lambda_3 (Lambda)                (None, 256, 12, 12)   0           max_pooling2d_2[0][0]            
____________________________________________________________________________________________________
zero_padding2d_2 (ZeroPadding2D) (None, 256, 14, 14)   0           lambda_3[0][0]                   
____________________________________________________________________________________________________
conv_3 (Conv2D)                  (None, 384, 12, 12)   885120      zero_padding2d_2[0][0]           
____________________________________________________________________________________________________
zero_padding2d_3 (ZeroPadding2D) (None, 384, 14, 14)   0           conv_3[0][0]                     
____________________________________________________________________________________________________
lambda_4 (Lambda)                (None, 192, 14, 14)   0           zero_padding2d_3[0][0]           
____________________________________________________________________________________________________
lambda_5 (Lambda)                (None, 192, 14, 14)   0           zero_padding2d_3[0][0]           
____________________________________________________________________________________________________
conv_4_1 (Conv2D)                (None, 192, 12, 12)   331968      lambda_4[0][0]                   
____________________________________________________________________________________________________
conv_4_2 (Conv2D)                (None, 192, 12, 12)   331968      lambda_5[0][0]                   
____________________________________________________________________________________________________
conv_4 (Merge)                   (None, 384, 12, 12)   0           conv_4_1[0][0]                   
                                                                   conv_4_2[0][0]                   
____________________________________________________________________________________________________
zero_padding2d_4 (ZeroPadding2D) (None, 384, 14, 14)   0           conv_4[0][0]                     
____________________________________________________________________________________________________
lambda_6 (Lambda)                (None, 192, 14, 14)   0           zero_padding2d_4[0][0]           
____________________________________________________________________________________________________
lambda_7 (Lambda)                (None, 192, 14, 14)   0           zero_padding2d_4[0][0]           
____________________________________________________________________________________________________
conv_5_1 (Conv2D)                (None, 128, 12, 12)   221312      lambda_6[0][0]                   
____________________________________________________________________________________________________
conv_5_2 (Conv2D)                (None, 128, 12, 12)   221312      lambda_7[0][0]                   
____________________________________________________________________________________________________
conv_5 (Merge)                   (None, 256, 12, 12)   0           conv_5_1[0][0]                   
                                                                   conv_5_2[0][0]                   
____________________________________________________________________________________________________
convpool_5 (MaxPooling2D)        (None, 256, 5, 5)     0           conv_5[0][0]                     
____________________________________________________________________________________________________
flatten (Flatten)                (None, 6400)          0           convpool_5[0][0]                 
____________________________________________________________________________________________________
dense_1 (Dense)                  (None, 4096)          26218496    flatten[0][0]                    
____________________________________________________________________________________________________
dropout_1 (Dropout)              (None, 4096)          0           dense_1[0][0]                    
____________________________________________________________________________________________________
dense_2 (Dense)                  (None, 4096)          16781312    dropout_1[0][0]                  
____________________________________________________________________________________________________
dropout_2 (Dropout)              (None, 4096)          0           dense_2[0][0]                    
____________________________________________________________________________________________________
dense_3 (Dense)                  (None, 12)            49164       dropout_2[0][0]                  
____________________________________________________________________________________________________
softmax (Activation)             (None, 12)            0           dense_3[0][0]                    
====================================================================================================
Total params: 45,383,052
Trainable params: 45,383,052
Non-trainable params: 0
____________________________________________________________________________________________________
Found 11868 images belonging to 12 classes.
Found 2772 images belonging to 12 classes.
…
